trained_model/best.pth (torch, 420919 bytes, 201 tensors)

pos_S f4 [1, 23, 24]
0	0x3f9a07b5	1.2033602
1	0x3f77792c	0.9666927
2	0x3fbafe12	1.4608786
3	0xbf109b02	-0.56486523
4	0xbd148115	-0.036255915
5	0xbf7dc495	-0.99128085
6	0xbf4eb248	-0.80740786
7	0xbe2b92cb	-0.16755216
8	0xbf8232f2	-1.0171797
9	0xbeaccee1	-0.33751586
10	0xbf5413b7	-0.8284258
11	0xbfb8735d	-1.4410206
12	0xbf3e48b8	-0.7432971
13	0x3d8fc724	0.07020405
14	0xbde11d20	-0.10991883
15	0x3e3b396f	0.18283628
16	0xbdc4429b	-0.095830165
17	0xbf02c271	-0.51077944
18	0xbccc0f91	-0.024909766
19	0xbf3796ec	-0.71714664
20	0xbf4b0147	-0.79298824
21	0xbeac3436	-0.33633584
22	0x3e884a74	0.26619303
23	0x3ecd021f	0.4004068
24	0x3e4860f2	0.19568232
25	0x3f13d67b	0.57749146
26	0x3eacbdec	0.3373865
27	0xbeae29f8	-0.34016395
28	0x3f02cfc4	0.51098275
29	0x3ce93097	0.028465552
30	0x3ea71480	0.32632828
31	0xbf646929	-0.8922296
32	0xbf87b422	-1.0601847
33	0xbdc362ba	-0.09540315
34	0xbf0c270c	-0.5474708
35	0xbdde3921	-0.1085074
36	0xbf83f549	-1.030923
37	0x3f4ba8fa	0.7955471
38	0xbf044cd6	-0.5167974
39	0x3de69b5e	0.11260103
40	0xbf1c40fc	-0.6103666
41	0x3e12be8b	0.14330499
42	0xbd82ff05	-0.06396297
43	0x3e8c8c40	0.27450752
44	0x3e684bb3	0.22685127
45	0xbefde942	-0.49592024
46	0xbee7b61a	-0.4525612
47	0x3c6f15cb	0.014592598
48	0x3dbdc53b	0.09266134
49	0x3c632b71	0.013865338
50	0x3ed73969	0.42035988
51	0xbf0ffc4f	-0.5624437
52	0xbefe7494	-0.49698317
53	0xbe0f1fa6	-0.13976917
54	0x3eaf324d	0.34218064
55	0xbdc43815	-0.09581009
56	0xbe84b93b	-0.2592257
57	0x3ea2ac82	0.31772238
58	0xbe7f6517	-0.24940906
59	0xbec14d80	-0.3775444
60	0xbe52f926	-0.20602855
61	0xbf049e2a	-0.5180384
62	0xbe8511d5	-0.25990167
63	0xbefdbcce	-0.4955811
64	0x3f6f1b07	0.93400615
65	0xbe140020	-0.14453173
66	0xbe714eec	-0.23565263
67	0xbf1af2d5	-0.6052678
68	0xbe9cbc3e	-0.30612367
69	0x3d15bb1e	0.036555402
70	0xbf24a5b3	-0.64315337
71	0x3e6a86f1	0.22903039
72	0x3f11c48f	0.5694055
73	0xbedcc4e1	-0.43118957
74	0x3eaad4d4	0.333655
75	0x3f8e19d2	1.110163
76	0xbf262a8a	-0.6490866
77	0x3ede246a	0.43387157
78	0x3dfb0275	0.12256328
79	0x3eb7fdb8	0.3593576
80	0xbf3d8fc0	-0.7404747
81	0x3f3f8254	0.7480824
82	0xbd36734f	-0.04454356
83	0xbe452d1e	-0.19255492
84	0x3ead9b82	0.33907706
85	0x3e2b1682	0.16707805
86	0xbf08c9f1	-0.5343314
87	0x3dd05d10	0.10174
88	0x3d8faba2	0.07015158
89	0x3e10cba0	0.14140177
90	0x3f889757	1.0671185
91	0xbed1acbe	-0.40952104
92	0x3f06be21	0.52633864
93	0x3eb4c1d6	0.35304135
94	0xbee4405e	-0.44580358
95	0x3e5c526b	0.21515815
96	0xbc517ebb	-0.012786563
97	0x3e2ec161	0.17065956
98	0xbf06b224	-0.5261557
99	0xbf0f8ef1	-0.56077486
100	0xbf0b8618	-0.54501486
101	0xbedf6e12	-0.43638664
102	0x3f000ed5	0.5002263
103	0xbf3317cc	-0.69958186
104	0xbea8cf8e	-0.32970852
105	0xbe26572a	-0.16244188
106	0xbf17a361	-0.5923367
107	0xbe885967	-0.2663071
108	0x3ea583e4	0.32327187
109	0x3f1ba084	0.607918
110	0x3d5df558	0.054189056
111	0xbdf99622	-0.12186839
112	0xbd2bedc4	-0.041974798
113	0xbe7dab6e	-0.24772426
114	0xbf0800ae	-0.5312604
115	0xbdffa856	-0.124832794
116	0xbf8792ce	-1.0591676
117	0xbf209730	-0.62730694
118	0xbf409bcf	-0.75237745
119	0x3f0a082d	0.53918725
120	0xbf459f47	-0.7719616
121	0xbea68387	-0.32522222
122	0x3b0d1a6d	0.0021530644
123	0x3e1f4ece	0.15557405
124	0xbf284171	-0.65724856
125	0xbe93b033	-0.28845367
126	0xbe381466	-0.17976531
127	0x3ed54fe1	0.41662505
128	0xbf005663	-0.50131816
129	0xbf13efaf	-0.57787603
130	0xbe3ca960	-0.18423986
131	0x3d03e9db	0.032205444
132	0xbe9cbd73	-0.30613288
133	0x3cdf477e	0.02725577
134	0x3f4775b3	0.7791397
135	0x3e1fd5a2	0.15608838
136	0xbf511e32	-0.816867
137	0xbdc47182	-0.095919624
138	0x3eecf35f	0.46279427
139	0x3f15a5ef	0.5845632
140	0xbea87f95	-0.32909837
141	0x3d035e77	0.03207251
142	0x3d6a5564	0.05721034
143	0xbf80be06	-1.005799
144	0x3eeebc26	0.4662792
145	0xbe4a6e9b	-0.19768755
146	0xbca92699	-0.020648288
147	0x3e2c534e	0.16828653
148	0xbf442ae6	-0.7662796
149	0x3f277adf	0.6542186
150	0xbed40447	-0.41409513
151	0x3d7cb34e	0.061694436
152	0x3f324a05	0.69644195
153	0xbe30636d	-0.17225428
154	0xbebeda2b	-0.37275824
155	0x3f728c1e	0.9474505
156	0x3eb2f5db	0.34953198
157	0xbe878728	-0.26470304
158	0x3c966e9f	0.018363295
159	0x3d841b79	0.064505525
160	0x3e9737bd	0.29534712
161	0x3e8e7110	0.27820635
162	0xbd2bab88	-0.04191163
163	0x3ef9a7e0	0.4876089
164	0xbe913c26	-0.28366202
165	0x3df5a7a6	0.11994867
166	0x3e16446a	0.14674535
167	0x3efc012a	0.49219638
168	0xbe1dbe95	-0.15404733
169	0xba9fe1e4	-0.0012198058
170	0x3e40bc7b	0.188219
171	0xbf020d8e	-0.5080193
172	0x3e132f97	0.14373623
173	0xbeae6ae1	-0.34065917
174	0xbf6da83a	-0.9283482
175	0x3ea23e41	0.3168812
176	0x3ef92ba5	0.4866611
177	0x3e73f8d6	0.23825392
178	0x3cd9cb27	0.026586128
179	0x3df212cd	0.11819992
180	0x3d63eb41	0.055644277
181	0xbe200937	-0.15628515
182	0xbe960a91	-0.29304937
183	0xbf6ad542	-0.91731656
184	0xbd858b5f	-0.065207236
185	0x3d82dd33	0.06389847
186	0x3de48f7e	0.111601815
187	0xbeaf3f11	-0.34227803
188	0x3da31a3e	0.0796399
189	0x3e68d5be	0.22737786
190	0x3f3d1c89	0.73871666
191	0xbc809fc1	-0.015701177
192	0xbe6653c1	-0.22492887
193	0xbefb1d12	-0.49045616
194	0xbdf4ed41	-0.11959315
195	0x3f31535f	0.6926784
196	0xbed4592c	-0.41474283
197	0xbf5ec2ce	-0.87016
198	0x3ee1aeae	0.44078583
199	0x3e18a9d0	0.14908528
200	0x3ef15c56	0.4714076
201	0x3e2622fe	0.16224286
202	0xbc0fb720	-0.008771688
203	0x3eddc5b0	0.43314886
204	0xbeaf21aa	-0.3420537
205	0x3eb75f61	0.35814956
206	0xbe7ed27d	-0.24884982
207	0xbf891fa8	-1.0712786
208	0xbe8bd97c	-0.27314365
209	0x3dc4b1b2	0.09604205
210	0xbecba76d	-0.39776173
211	0x3f0884da	0.53327715
212	0x3dbac781	0.091200836
213	0x3f8891b3	1.0669464
214	0x3f9cee7a	1.2260277
215	0x3f0c023c	0.5469091
216	0xbe3cfc92	-0.18455723
217	0xbe0c4961	-0.13699867
218	0x3ed21743	0.41033372
219	0xbf408aa5	-0.75211555
220	0x3e452c39	0.19255151
221	0x3e80c86f	0.2515292
222	0xbf13d757	-0.5775046
223	0xbd6e1d56	-0.058133446
224	0x3d805853	0.062668465
225	0x3d16ab42	0.036784418
226	0xbf0c9ee5	-0.54929954
227	0xbe8afe0a	-0.2714694
228	0xbdce8730	-0.10084379
229	0x3ef9e054	0.4880396
230	0x3e84586b	0.25848708
231	0x3e9d4456	0.307162
232	0xbf123bab	-0.57122296
233	0x3e8c570b	0.2741016
234	0x3d853235	0.06503717
235	0xbe8fcb7c	-0.28084934
236	0x3e9e619c	0.30933845
237	0x3e8bd40d	0.2731022
238	0xbef99981	-0.48749927
239	0xbe2ca83c	-0.16861051
240	0x3dadb592	0.084818974
241	0x3ed7603f	0.42065617
242	0xbe775693	-0.24154119
243	0xbee583e5	-0.4482719
244	0xbf1ec1fb	-0.6201474
245	0xbe030df2	-0.12798288
246	0xbe988b74	-0.29793894
247	0xbc8c96e8	-0.017161801
248	0x3c87d3c5	0.016580472
249	0x3f385bbd	0.7201498
250	0xbf580c24	-0.84393525
251	0x3dcccf21	0.10000444
252	0xbed38ec4	-0.4131986
253	0xbdc2a8ea	-0.09504874
254	0xbf95afc4	-1.1694264
255	0x3f706c78	0.9391551

master1 f4 [1, 1, 24]
0	0x3f352ec0	0.7077446
1	0xbf789df3	-0.9711601
2	0x3fb5ea16	1.4212062
3	0xbf1e6d19	-0.6188522
4	0xbfd22781	-1.6418306
5	0x3eff94ac	0.49918115
6	0x3e7b79ed	0.2455823
7	0xbf882498	-1.0636168
8	0x3a729888	0.00092542963
9	0xbe53993a	-0.2066392
10	0x3d017ede	0.03161513
11	0x3f9afce0	1.2108421
12	0xbd6b14f9	-0.057393048
13	0xbfacc5fe	-1.3497922
14	0x3f90604b	1.1279386
15	0x3f7535af	0.9578504
16	0xbf453e2e	-0.77048004
17	0x3eb25d02	0.34836584
18	0xbe25d87f	-0.16195868
19	0xbf548975	-0.8302224
20	0xbf87c4af	-1.0606898
21	0xbffaaaf0	-1.9583416
22	0x3f2583f5	0.64654475
23	0x3f4c8bc2	0.79900753

master2 f4 [1, 1, 24]
0	0x3faed49d	1.3658634
1	0x3e38a13a	0.18030253
2	0x3d9aab81	0.07552243
3	0xbf5244e8	-0.8213639
4	0xbf539ff9	-0.82665974
5	0xbf36aed9	-0.71360546
6	0x3f6ab110	0.91676426
7	0xbd42029a	-0.047365762
8	0xbefb3f51	-0.49071744
9	0x3f593905	0.8485263
10	0x3e948c03	0.2901307
11	0xbdd234b2	-0.10263957
12	0xbda79953	-0.08183541
13	0xbf0ec58f	-0.557702
14	0x3da42303	0.080144905
15	0x3f15afe1	0.58471495
16	0x3f21c2ec	0.6318805
17	0x3fad199d	1.3523442
18	0x3ed028f0	0.40656233
19	0x3fafcb88	1.3733988
20	0x3f1def8d	0.6169365
21	0xbf732110	-0.94972324
22	0xbef3cc31	-0.47616723
23	0x3f8d8d69	1.105878

encoder.0.0.conv1.weight f4 [32, 1, 2, 3]
0	0xbe82a6d4	-0.25517905
1	0xbcacdb61	-0.021100702
2	0xbe162f36	-0.14666447
3	0xbdebd6db	-0.1151559
4	0xbeac1bd7	-0.3361499
5	0x3cbb59a2	0.022869889
6	0xbec019b5	-0.37519613
7	0xbca37ad9	-0.01995604
8	0x3e0d76a1	0.13814785
9	0xbe01db28	-0.12681258
10	0x3e7c906f	0.24664472
11	0x3d998adc	0.074971884
12	0x3e26b9a5	0.16281755
13	0x3e7b4471	0.24537827
14	0xbe59d9d9	-0.21274509
15	0x3e166cc2	0.14689925
16	0xbe35f86d	-0.17770548
17	0x3ddacebe	0.10683964
18	0xbe6bbde4	-0.23021656
19	0x3e40c721	0.18825962
20	0x3da62320	0.08112168
21	0xbe25bafe	-0.16184613
22	0xbe3eebc9	-0.18644632
23	0x3df7278e	0.12068091
24	0x3ebbd918	0.36689067
25	0x3e26f983	0.16306119
26	0xbd900664	-0.07032469
27	0xbcf65176	-0.03006814
28	0x3e4c1162	0.19928506
29	0xbe9f40b6	-0.31104058
30	0x3dcd2eeb	0.100187145
31	0xbe25bb4d	-0.16184731
32	0x3e5cbf96	0.21557459
33	0xbe32e5e9	-0.17470516
34	0xbbfd4354	-0.0077289734
35	0x3e0d66a3	0.13808684
36	0x3e93db9b	0.28878483
37	0xbd631946	-0.055444025
38	0x3eba715f	0.3641462
39	0xbea41897	-0.3205001
40	0xbd8203db	-0.063483916
41	0xbecc1440	-0.398592
42	0x3d334acf	0.043772515
43	0x3e063a19	0.131081
44	0xbe120aa7	-0.14261876
45	0x3deca17d	0.11554239
46	0xbdb2f237	-0.08737605
47	0xbec95331	-0.39321283
48	0x3e7c396f	0.24631284
49	0x3e3ee4c1	0.1864195
50	0x3e2eb06f	0.17059492
51	0x3e8ff65f	0.28117654
52	0x3e0d1f6b	0.13781516
53	0x3e3de5d8	0.1854471
54	0x3eb38a77	0.35066578
55	0xbd95f894	-0.07322803
56	0xbea1fdd7	-0.31638977
57	0xbe1cb986	-0.15305147
58	0xbc95a074	-0.018264987
59	0x3c30a8f2	0.010782467
60	0x3d152bf9	0.03641889
61	0x3e7fc650	0.24977994
62	0x3e1c58f9	0.15268315
63	0xbe90948e	-0.28238338
64	0xbe070f89	-0.1318952
65	0xbdbdfa9e	-0.09276317
66	0x3e88120f	0.26576278
67	0xbdfa4d24	-0.12221745
68	0xbe29a0d2	-0.16565254
69	0xbd72b50a	-0.059254684
70	0xbd8e3e13	-0.069454335
71	0xbdca6953	-0.0988337
72	0xbed3d6f0	-0.41374922
73	0x3eb40ea1	0.3516741
74	0x3e58550e	0.21126196
75	0xbe3a93b0	-0.18220401
76	0xbe759390	-0.23982072
77	0x3d348056	0.044067703
78	0x3e8ba9c6	0.27277964
79	0xbe8521dd	-0.26002398
80	0xbe12e068	-0.14343417
81	0x3e55ebe7	0.20890771
82	0xbe65d7f5	-0.22445662
83	0xbbf545d2	-0.00748513
84	0xbeae8f07	-0.34093496
85	0x3eabd237	0.3355882
86	0x3e4d047a	0.20021239
87	0xbec2d5e4	-0.3805381
88	0xbe6f1bc6	-0.23350438
89	0x3e214297	0.15748058
90	0x3d6eda9d	0.058313955
91	0x3e205cdd	0.15660425
92	0xbe87406f	-0.26416346
93	0xbe74329c	-0.23847431
94	0x3e13812b	0.14404742
95	0xbe9b4e5f	-0.3033323
96	0xbd355730	-0.0442726
97	0x3e1ec1e4	0.15503651
98	0x3e6e0da3	0.2324739
99	0x3bd3e769	0.006466795
100	0x3d9e00b1	0.077149756
101	0x3e2d663a	0.16933528
102	0xbdb2b15d	-0.087252356
103	0xbe1eb8e7	-0.15500222
104	0x3e8922cf	0.2678437
105	0x3eb620b3	0.35571823
106	0x3de8ab8f	0.11360847
107	0xbe78ad67	-0.24284898
108	0xbe80400d	-0.25048867
109	0xbe9b8681	-0.30376056
110	0x3c0884b0	0.008332416
111	0xbdb2bfaf	-0.08727967
112	0xbd7b6c79	-0.061382744
113	0xbd2ba167	-0.041901972
114	0x3ea6856c	0.32523668
115	0x3e97f0a1	0.29675773
116	0xbd4e1cd0	-0.050320446
117	0xbe073d61	-0.13207008
118	0x3e384f8b	0.17999093
119	0xbd78d54c	-0.06075029
120	0xbecb0a08	-0.3965609
121	0x3e133447	0.14375411
122	0x3ecd2212	0.40065056
123	0xbe8c2d46	-0.2737829
124	0xbd34159e	-0.04396593
125	0x3e11401c	0.14184612
126	0xbeb32284	-0.3498727
127	0xbebf6b62	-0.37386614
128	0x3e86fe2d	0.26365796
129	0xbe1036dc	-0.14083427
130	0x3e6bd2d7	0.23029648
131	0x3d0c3af9	0.03423593
132	0x3da633c4	0.08115342
133	0xbe97c584	-0.2964288
134	0xbde10f37	-0.1098923
135	0x3e7cf986	0.2470456
136	0x3e388faf	0.18023561
137	0xbe0c7b68	-0.13718951
138	0x3d8b643e	0.06806229
139	0x3e992706	0.29912585
140	0xbec2091b	-0.37897572
141	0x3e85717f	0.26063153
142	0xbe072e36	-0.13201222
143	0xbdbe176a	-0.0928181
144	0x3e4231c9	0.18964304
145	0xbeb49a6f	-0.35274073
146	0xbd8e6568	-0.069529355
147	0x3ec131e4	0.37733376
148	0x3e0a44d5	0.1350282
149	0xbe18bcc3	-0.14915757
150	0xbe24a4aa	-0.1607844
151	0x3e72ea14	0.23722106
152	0x3e0fd04b	0.14044301
153	0x3e857323	0.26064405
154	0xbe8cce35	-0.27501073
155	0x3df14c4b	0.1178213
156	0x3d4a6fb2	0.049422927
157	0x3d2e0bd4	0.04249175
158	0x3e9f9c8b	0.3117412
159	0x3e3bb68e	0.18331358
160	0x3e7c9deb	0.24669616
161	0x3e36c277	0.1784762
162	0x3e4d00d2	0.20019844
163	0xbcb964fb	-0.022631159
164	0xbe99ba0c	-0.30024755
165	0xbe7f9e87	-0.24962817
166	0xbe46dd3f	-0.19420336
167	0xbe74e21d	-0.2391438
168	0x3e150ce2	0.14555696
169	0x3da86b6f	0.08223616
170	0xbe160ac0	-0.14652538
171	0xbeac9395	-0.33706346
172	0x3eb9dd5c	0.36301696
173	0x3e94454e	0.28959125
174	0x3e5d954c	0.21638983
175	0x3ed3507b	0.4127234
176	0xbe5bb947	-0.21457396
177	0xbe5b69d7	-0.21427093
178	0xbe6ae076	-0.22937188
179	0xbc07f786	-0.00829876
180	0xbeb51b74	-0.35372508
181	0x3eae5052	0.34045655
182	0x3ce203d2	0.027589712
183	0x3e6533b8	0.2238301
184	0xbe5e3530	-0.21699977
185	0xbd2b65b3	-0.041845035
186	0x3d86e101	0.06585885
187	0xbdef766b	-0.11692508
188	0x3ec31e13	0.38108882
189	0xbe36c13a	-0.17847148
190	0x3e050839	0.12991418
191	0xbe951b5a	-0.2912243

encoder.0.0.conv1.bias f4 [32]
0	0x37badb35	2.2275004e-05
1	0xba07480d	-0.0005160578
2	0x39298508	0.00016166654
3	0x3899cc3e	7.3336516e-05
4	0xb923f560	-0.000156363
5	0xb821ac66	-3.854595e-05
6	0x388e7486	6.792792e-05
7	0x38c96b6f	9.604438e-05
8	0xb5dcafb3	-1.6442413e-06
9	0xb82e79b2	-4.159817e-05
10	0xb901d444	-0.00012381474
11	0xb885954a	-6.3697415e-05
12	0x391a4369	0.00014711697
13	0x3806dd4d	3.2154192e-05
14	0xb93d2e48	-0.00018041686
15	0xb91fdcdf	-0.00015245703
16	0x3806210a	3.197886e-05
17	0xb7c051d8	-2.2926295e-05
18	0xb83741bd	-4.3691824e-05
19	0x38080aaf	3.2434877e-05
20	0x38e10e7d	0.00010731535
21	0x388dceae	6.761901e-05
22	0xb97b2a0a	-0.00023952886
23	0x39ae0a83	0.00033195698
24	0x398685fc	0.00025658298
25	0xb789a902	-1.6410373e-05
26	0x3868d094	5.5507364e-05
27	0x38fa77a3	0.00011943213
28	0xb8ae5b6b	-8.3139945e-05
29	0xb90259f5	-0.00012431278
30	0x391acee4	0.00014763657
31	0x39a37be4	0.00031182088

encoder.0.0.bn2.weight f4 [32]
0	0x3f71afaa	0.9440867
1	0x3f7b85ea	0.9825121
2	0x3f55fa23	0.83584803
3	0x3f806fb3	1.0034088
4	0x3f63bd23	0.88960475
5	0x3f5b716c	0.85719943
6	0x3f7458ad	0.9544781
7	0x3f828938	1.0198126
8	0x3f4d5375	0.8020547
9	0x3f6e61d0	0.93118
10	0x3f764e18	0.9621291
11	0x3f7c5e6e	0.9858159
12	0x3f7e977c	0.99449897
13	0x3f78fbd7	0.9725928
14	0x3f76f450	0.9646654
15	0x3f78869c	0.970804
16	0x3f5d1751	0.86363703
17	0x3f5bef6d	0.8591221
18	0x3f685ab8	0.90763426
19	0x3f5704f4	0.8399193
20	0x3f7f9d54	0.9984944
21	0x3f81c3ef	1.0137919
22	0x3f69fca5	0.9140113
23	0x3f766a70	0.9625616
24	0x3f61f9de	0.8827189
25	0x3f64c54d	0.8936356
26	0x3f58e9f7	0.84732
27	0x3f79d21f	0.97586244
28	0x3f6331d9	0.88747936
29	0x3f7cd5c4	0.9876368
30	0x3f6b37a3	0.9188177
31	0x3f68e5c4	0.90975595

encoder.0.0.bn2.bias f4 [32]
0	0x3cb67cdb	0.022276333
1	0xbe125b6d	-0.14292689
2	0x3c880d00	0.016607761
3	0xbd04aa75	-0.032389123
4	0x3e294d6b	0.16533439
5	0x3df72924	0.12068394
6	0xbe445510	-0.19173074
7	0xbd89d84c	-0.067307085
8	0x3e664c20	0.22489977
9	0xbd289cdc	-0.041165218
10	0xbe127d10	-0.1430552
11	0xbc6cde61	-0.014457316
12	0xbb969348	-0.004595194
13	0xbd75a6da	-0.059973575
14	0x3d4d72e7	0.050158408
15	0xbda2fdf7	-0.07958596
16	0xbdcd9528	-0.10038215
17	0x3e4e8233	0.20166855
18	0xbccaee5e	-0.024771865
19	0x3e3793f4	0.17927533
20	0xbda4dcb6	-0.0804991
21	0x3bb1f936	0.0054313196
22	0x3d13699f	0.0359894
23	0xbc67b0a7	-0.014141238
24	0x3e046eb3	0.12932853
25	0xbd517cf5	-0.05114456
26	0x3c77aaa3	0.015116367
27	0xbd1bf84c	-0.03807859
28	0x3e98a7b8	0.2981546
29	0xbda50b80	-0.08058834
30	0xbc9cacb6	-0.019125324
31	0xbcdce599	-0.02696495

encoder.0.0.bn2.running_mean f4 [32]
0	0xbdeea537	-0.11652606
1	0xbc1457a2	-0.009054096
2	0x3d1872e1	0.037218932
3	0xbcd25127	-0.025673462
4	0x3d31b6fc	0.043387398
5	0x3c75c4dc	0.015000548
6	0xbccef011	-0.025260957
7	0xbd3a3fb0	-0.045470893
8	0x3e293fbd	0.1652822
9	0xbce0876d	-0.027408326
10	0xbc1ab3ea	-0.009442309
11	0xbd0c5f50	-0.034270585
12	0xbcff7843	-0.031185275
13	0xbcabee23	-0.020987576
14	0xbd13668b	-0.035986464
15	0xbd7b1f71	-0.06130928
16	0x3da72490	0.081612706
17	0x3d0d2bd6	0.034465633
18	0xbdce7a0d	-0.10081873
19	0x3d9cb4ae	0.076516494
20	0xbb72ccc9	-0.003704833
21	0xbd3c2c6d	-0.045940805
22	0xbba7190e	-0.0050994223
23	0x3b67640f	0.0035307442
24	0x3c94f976	0.018185358
25	0x3d33a35b	0.04385696
26	0x3e0dd103	0.13849263
27	0xbde19598	-0.11014861
28	0x3d5df6c3	0.05419041
29	0xbbab95be	-0.0052363565
30	0xbb2cb44a	-0.0026352578
31	0xba8c77f5	-0.0010716902

encoder.0.0.bn2.running_var f4 [32]
0	0x3efd509a	0.49475557
1	0x3d057c48	0.032589227
2	0x3d6bf9b9	0.0576112
3	0x3d206280	0.039156437
4	0x3de2bf0a	0.11071594
5	0x3c8a7758	0.01690261
6	0x3e23f5fd	0.16011806
7	0x3dcb9f08	0.09942442
8	0x3f7ccf18	0.987535
9	0x3d20d01d	0.039260972
10	0x3d9089c3	0.07057526
11	0x3d583742	0.052787073
12	0x3d9f18a2	0.0776837
13	0x3d07949a	0.033100702
14	0x3ddef8ca	0.108872965
15	0x3e191e96	0.14953074
16	0x3e7cb60f	0.24678825
17	0x3d5c9c3f	0.053859945
18	0x3ec34e4d	0.38145676
19	0x3e7a7ef3	0.2446249
20	0x3d42167d	0.047384728
21	0x3df7ed59	0.12105817
22	0x3d1db68d	0.038504172
23	0x3ca0e3e5	0.019639919
24	0x3d64e8c3	0.05588604
25	0x3d97ff43	0.07421734
26	0x3f32d923	0.69862574
27	0x3ef058cc	0.46942747
28	0x3dfe765f	0.12424921
29	0x3d7df02f	0.061996635
30	0x3bdee1d2	0.006801822
31	0x3d118e30	0.03553599

encoder.0.0.conv2.weight f4 [32, 32, 2, 3]
0	0xbd4e5a8f	-0.050379332
1	0x3da293f9	0.0793838
2	0x3d16e3c9	0.036838327
3	0x3d6834aa	0.05669085
4	0xbd6745e9	-0.056463156
5	0xbd5e0a24	-0.05420889
6	0xbd49eb3b	-0.0492966
7	0xbdb1f7fd	-0.08689878
8	0xbda10031	-0.07861365
9	0xbd7545cb	-0.059881013
10	0x3b3f922c	0.0029231412
11	0xbd8c664c	-0.06855449
12	0x3d64801c	0.055786237
13	0xbc8dcb26	-0.017308783
14	0x3d5109b0	0.05103463
15	0xbd17ca91	-0.037058417
16	0xbd8a88f6	-0.067644045
17	0xbd903887	-0.07042032
18	0xbd935647	-0.071941905
19	0xbd2c0600	-0.04199791
20	0x3cc44119	0.023956822
21	0xbd8b4db1	-0.06801928
22	0xbbd408ea	-0.006470789
23	0xbcd12e04	-0.025534637
24	0x3ca4fa47	0.020138873
25	0xbd5686b5	-0.05237456
26	0x3d47954e	0.048726372
27	0xbd188896	-0.037239634
28	0x3cf439fd	0.029812807
29	0x3d8c3e3c	0.06847808
30	0xbc99e98d	-0.018788124
31	0x3bdadc30	0.0066790804
32	0x3d2cb3f3	0.0421638
33	0xbc867026	-0.016410898
34	0xbd71b415	-0.05900963
35	0x3cecc11d	0.028900677
36	0x3cd72422	0.026262347
37	0xbd35ecb6	-0.0444152
38	0xbd36ef76	-0.04466196
39	0xbbe9f9b6	-0.0071403636
40	0x3bc572c1	0.0060256426
41	0xbd2871b7	-0.041124072
42	0x3d0f3fec	0.03497307
43	0xbc8ca681	-0.017169239
44	0xbd54a7a2	-0.05191768
45	0x3d000f4d	0.031264592
46	0xbcd81b07	-0.026380075
47	0x3d1f8d1a	0.038952924
48	0x3cceb47e	0.02523255
49	0x3d7d2b2d	0.061808754
50	0x3d8109aa	0.063006714
51	0x3ba4500c	0.005014425
52	0xbd2c9014	-0.04212959
53	0x3cdefba7	0.027219607
54	0x3ca5f84c	0.020259999
55	0x3cd1e52f	0.025621979
56	0xbd215169	-0.03938428
57	0x3db768b2	0.08955516
58	0x3d2f02e0	0.04272735
59	0xbd346529	-0.044041786
60	0xbd91ca73	-0.07118692
61	0x3d5af8da	0.05345998
62	0x3c90ee08	0.017691627
63	0x3c960c46	0.0183164
64	0x3d0b3150	0.033982575
65	0xbc6d3308	-0.014477499
66	0x3b8959e9	0.0041916263
67	0xbc9f0c21	-0.019414963
68	0xbcc33f99	-0.023834037
69	0x3d982771	0.07429398
70	0x3d076153	0.0330518
71	0xbd0e1ce8	-0.034695536
72	0xbd8d029a	-0.06885262
73	0x3d07bb69	0.033137713
74	0x3d9f9371	0.07791794
75	0x3c6e9009	0.014560708
76	0xbb37e0e1	-0.0028057622
77	0xbc6af958	-0.014341675
78	0x3df2083c	0.11817977
79	0x3d1e0231	0.03857631
80	0xbd2c9e98	-0.042143434
81	0x3dc2c875	0.095108904
82	0x3d7f7dfe	0.062376015
83	0xbd1db282	-0.038500316
84	0xbd1b5271	-0.03792042
85	0x3ccb697b	0.02483057
86	0xbb449910	-0.002999846
87	0xbd158a76	-0.036509
88	0x3da4b032	0.08041419
89	0x3b1765f5	0.0023101543
90	0xbd5ca2da	-0.053866245
91	0x3ca3bcbe	0.01998746
92	0x3a6cb24d	0.00090292544
93	0x3d3bdc5f	0.04586446
94	0xbc669b4c	-0.014075112
95	0x3ccb92da	0.024850298
96	0x3c2be0ed	0.010490638
97	0x3d521318	0.05128774
98	0x3cd34913	0.02579168
99	0xbd6bf276	-0.057604276
100	0x3c6c1549	0.014409372
101	0xbcce9f30	-0.02522239
102	0x3d5b9852	0.05361206
103	0xbcd4e57f	-0.025988339
104	0xbc838509	-0.016054647
105	0x3d835b62	0.06413914
106	0xbcdb24ea	-0.026751
107	0xbc32d2dd	-0.010914532
108	0x3be8c2c5	0.0071032965
109	0x3ce0ca35	0.02744017
110	0x3cd183e3	0.025575584
111	0xbd9c74f5	-0.07639495
112	0x3d91aed9	0.07113428
113	0x3d9c89d3	0.076434754
114	0xbd1b57b9	-0.037925456
115	0x3ce238aa	0.02761491
116	0x3d894992	0.067034855
117	0x3c002273	0.007820713
118	0x3ca1724c	0.019707821
119	0x3d38ae06	0.045087837
120	0xbcb93309	-0.022607343
121	0x3c2c41d5	0.010513742
122	0xbd351cc5	-0.04421689
123	0xbdb195cd	-0.0867115
124	0xbbcbb97f	-0.006217181
125	0xbc0496eb	-0.008092622
126	0xbdb79a71	-0.08965004
127	0x3d63d7ce	0.05562573
128	0x3d0493af	0.032367405
129	0xbdc1de27	-0.094662
130	0xbd28b640	-0.041189432
131	0x3d666167	0.056245234
132	0xbcf53b8c	-0.02993562
133	0xbc149460	-0.0090685785
134	0xbd133b33	-0.03594513
135	0x3c2da9e6	0.010599589
136	0xbd23e48b	-0.040012877
137	0xbd22a557	-0.03970846
138	0x3c002d5a	0.007823313
139	0x3d2e513a	0.042557932
140	0xbd80758d	-0.06272421
141	0x3cfb4275	0.030671338
142	0xbcd53bc6	-0.026029479
143	0xbde8d0d4	-0.11367956
144	0x3cd10fce	0.025520232
145	0x3bfa516c	0.007639101
146	0x3d1a44db	0.037663322
147	0x3d36c6e8	0.044623286
148	0x3cef73c4	0.029230006
149	0xbdb5dece	-0.08880387
150	0xbd6a15b2	-0.057149597
151	0x3ca26a6b	0.019826135
152	0x3d07caa6	0.033152245
153	0x3ccd351a	0.025049735
154	0xbd6bcd85	-0.057569046
155	0x3c9024df	0.017595707
156	0xbd770196	-0.060304247
157	0x3c46de60	0.012137979
158	0xbd07c8e8	-0.033150584
159	0xbd2a3e07	-0.04156306
160	0x3d06cc1b	0.032909494
161	0x3d2d9efc	0.042387947
162	0x3cd25c5d	0.025678808
163	0x3cd663aa	0.02617057
164	0xbbb99f15	-0.005664716
165	0xbcf7f021	-0.03026587
166	0x3cc3da62	0.023907844
167	0x3d61198e	0.05495601
168	0x3c90643c	0.01762592
169	0xbd87ccd6	-0.06630866
170	0xbce4b52d	-0.027918423
171	0xbc642f6b	-0.013927321
172	0xbc967c63	-0.01836986
173	0xbc9629e5	-0.018330524
174	0xbdb20320	-0.08692002
175	0x3ba22cb5	0.004949177
176	0x3d16a929	0.036782417
177	0xbd26bbf2	-0.040706582
178	0x3d363819	0.044487093
179	0x3cf96f71	0.030448647
180	0xbabf3bd9	-0.001458998
181	0x3d769d6b	0.06020872
182	0x3b340125	0.0027466503
183	0x3b7354ff	0.003712952
184	0xbcd305be	-0.025759574
185	0xbd65488a	-0.05597738
186	0x3bbdd7e8	0.0057935603
187	0x3dac3bae	0.084098205
188	0x3c4221c5	0.011848872
189	0xbc6651ed	-0.014057619
190	0xbc53a7a3	-0.012918386
191	0xbd0c6fba	-0.03428624
192	0xbd413421	-0.047168855
193	0xbcabd2c5	-0.020974526
194	0x3d44ead9	0.04807553
195	0xbc911dcf	-0.01771441
196	0xbce1d7c4	-0.027568705
197	0x3cb4477d	0.022006745
198	0x3d955db8	0.07293266
199	0x3b16062d	0.0022891865
200	0x3bb6d036	0.00557902
201	0x3d572f7e	0.052535526
202	0xbd99cd74	-0.0750989
203	0xb9d23e3c	-0.0004010069
204	0xbd0408c1	-0.03223491
205	0xbd49a482	-0.049229153
206	0x3d39ee51	0.04539329
207	0xbd9ae09a	-0.075623706
208	0xbcd7d8b3	-0.026348447
209	0x3d8d9b18	0.069143474
210	0xbd8aed7d	-0.067835785
211	0xbd5c56a0	-0.05379355
212	0x3d7fff41	0.06249929
213	0xbd0a31b7	-0.033738818
214	0x3cb9891f	0.022648392
215	0x3ced78fe	0.028988358
216	0xbbbe4ecd	-0.0058077336
217	0xbdb0475f	-0.08607363
218	0xbdb7e5b3	-0.089793585
219	0xbda8ac04	-0.082359344
220	0xbd81aa59	-0.06331319
221	0xbd2151e7	-0.03938475
222	0x3c87a3b9	0.016557561
223	0xbd92fc25	-0.07176999
224	0xbd82f2c1	-0.06393958
225	0x3c183aad	0.009291333
226	0xbd1b54ae	-0.037922554
227	0x3ccedcbf	0.025251744
228	0x3d469cf2	0.04848952
229	0x3dc6dfa1	0.097106226
230	0x3d0ff199	0.035142515
231	0xbd735e57	-0.05941614
232	0xbd6871ec	-0.05674927
233	0xbd88d659	-0.066815086
234	0xbb52c2fa	-0.0032159672
235	0x3c6f0ad3	0.014589983
236	0xbb44db67	-0.0030038
237	0x3cb41565	0.021982858
238	0x3ab6146f	0.0013891588
239	0xbbf1c72d	-0.00737848
240	0xbce0743a	-0.027399171
241	0xbd51d7a9	-0.05123106
242	0x3aff76e9	0.0019490394
243	0xbadd2aaf	-0.0016873683
244	0xbcd58091	-0.026062282
245	0x3d4c7ffb	0.04992674
246	0xbd16d28e	-0.036821894
247	0x3d0b587a	0.034019925
248	0xbd8a3dbd	-0.06750057
249	0x3c9d96cf	0.01923695
250	0x3d1b22f2	0.037875123
251	0x3d07cb1a	0.033152677
252	0x3d33cc02	0.04389573
253	0xbc6d61fa	-0.014488691
254	0x3c46bba2	0.012129696
255	0xbd1dd3df	-0.038532134

encoder.0.0.conv2.bias f4 [32]
0	0x3d4d47b6	0.050117217
1	0x3d509c1a	0.05093012
2	0xbd59d1de	-0.05317866
3	0xbcca22b6	-0.024674755
4	0x3d1cd19c	0.038285837
5	0x3e04a364	0.12952954
6	0xbd164399	-0.03668556
7	0x3dd2897d	0.1028013
8	0xbcd21748	-0.025645867
9	0xbdcd0480	-0.10010624
10	0x3c09a0cc	0.008400153
11	0x3cdc51fc	0.026894562
12	0x3dda86fc	0.106702775
13	0xbe24b0b8	-0.16083038
14	0xbda367bb	-0.079787694
15	0x3da1bf2a	0.0789779
16	0xbd1c1eed	-0.03811543
17	0xbc621881	-0.0137997875
18	0xbc918d26	-0.0177675
19	0x3d9b5f2d	0.07586513
20	0x3db03fa1	0.08605886
21	0xbc215dd6	-0.009849032
22	0xbd70706e	-0.05870097
23	0x3d2b1096	0.041763864
24	0x3d2f0d99	0.042737577
25	0x3c9bc44b	0.019014498
26	0x3c87d4ac	0.016580902
27	0xbd4b9c79	-0.04970977
28	0x3cabe133	0.020981407
29	0x3d80d536	0.06290667
30	0xbd9e982b	-0.077438675
31	0x3c88fa6b	0.016720971

encoder.0.0.conv_downsample.weight f4 [32, 1, 1, 3]
0	0x3e06dcf7	0.13170229
1	0xbd098675	-0.033575494
2	0xbe37968a	-0.1792852
3	0xbe2d152b	-0.16902606
4	0x3e9740bf	0.29541585
5	0xbe9a1e20	-0.3010111
6	0x3ec37a39	0.38179186
7	0x3e1ae988	0.15128148
8	0x3dc2ea08	0.09517294
9	0xbe2fc52f	-0.17165063
10	0xbee66efa	-0.45006543
11	0xbec6eda0	-0.38853168
12	0xbf03c133	-0.51466674
13	0xbe991b01	-0.29903415
14	0xbefa1ec0	-0.48851585
15	0x3e81a982	0.25324637
16	0xbef7fb28	-0.48433805
17	0xbeacd63f	-0.33757207
18	0xbefe00d6	-0.49610013
19	0x3ecacd16	0.39609593
20	0x3e4f2d51	0.2023213
21	0x3d385400	0.045001984
22	0xbe3b018f	-0.18262313
23	0xbce47bb9	-0.027891027
24	0x3ef35644	0.47526753
25	0x3e087f09	0.1332971
26	0x3e8610c1	0.26184657
27	0x3d9dfdab	0.07714399
28	0xbe3df109	-0.18548979
29	0xbe15dbe5	-0.14634664
30	0xbea620b2	-0.3244682
31	0x3e9ff028	0.31237912
32	0xbecb16fe	-0.3966598
33	0xbe25c8e2	-0.16189912
34	0xbe425dea	-0.18981138
35	0x3e91e0bf	0.2849178
36	0xbd5f7227	-0.054552224
37	0x3ed13618	0.40861583
38	0x3eb8309f	0.35974595
39	0x3ecafaa2	0.39644343
40	0xbe388bb5	-0.18022044
41	0xbecb61f2	-0.39723164
42	0x3d8cff88	0.06884676
43	0x3e591cdf	0.2120242
44	0xbea3b93c	-0.3197726
45	0xbf008ca1	-0.5021458
46	0x3e6ccaee	0.23124287
47	0x3ed59e37	0.4172227
48	0x3d3c19d4	0.04592307
49	0x3e0456a5	0.12923677
50	0xbe5bfc26	-0.21482906
51	0xbf0c32c8	-0.54764986
52	0xbebf3b9c	-0.37350166
53	0xbeed9b45	-0.46407524
54	0xbf07f42a	-0.5310694
55	0xbea95002	-0.33068854
56	0xbebf67aa	-0.37383777
57	0xbcef25da	-0.029192854
58	0x3e831234	0.25599825
59	0x3e0596ef	0.13045858
60	0x3e9fbc89	0.31198528
61	0x3e9038dd	0.28168383
62	0x3d79552b	0.060872238
63	0x3e9d4ba6	0.30721778
64	0x3e8ca383	0.274685
65	0xbf0a51eb	-0.54031247
66	0x3ebf6f94	0.37389815
67	0x3e79e379	0.2440318
68	0x3cd651a1	0.02616197
69	0xbead000c	-0.33789098
70	0xbe85445b	-0.26028714
71	0x3e2d71c6	0.16937932
72	0xbe6fba46	-0.23410901
73	0xbe91b38f	-0.28457305
74	0xbee75d45	-0.45188347
75	0x3e25ed7f	0.16203879
76	0x3d8a9ce2	0.06768204
77	0x3ed09b7b	0.40743622
78	0x3b2aca49	0.0026060513
79	0x3eb1888a	0.34674484
80	0x3e9cf597	0.3065612
81	0xbf0888c2	-0.53333676
82	0x3e8389d8	0.25691104
83	0xbe93a712	-0.28838402
84	0x3eba1bdc	0.3634938
85	0xbe4bce93	-0.1990302
86	0xbc46cd25	-0.012133871
87	0x3f0b6d43	0.54463595
88	0xbeef5091	-0.46741155
89	0x3e65eefd	0.22454448
90	0x3f0bd707	0.5462498
91	0xbec929de	-0.39289755
92	0x3dd9766e	0.10618292
93	0xbe2f9a5b	-0.17148726
94	0x3e80fb2c	0.2519163
95	0xbeab63f1	-0.33474687

encoder.0.0.conv_downsample.bias f4 [32]
0	0x3e9c6d71	0.30552247
1	0x3e3daac8	0.18522179
2	0x3e0980ba	0.13428012
3	0x3eedc2bf	0.46437642
4	0xbeb4f608	-0.35343957
5	0x3f1a359f	0.6023807
6	0x3f07a40d	0.52984697
7	0x3f0fbfb4	0.5615189
8	0xbe3308ab	-0.17483775
9	0x3ea0cf02	0.31407934
10	0x3e366e1b	0.1781544
11	0x3f14af90	0.5808039
12	0x3e4ab7c4	0.19796664
13	0xbf12e943	-0.5738718
14	0xbd8662db	-0.06561824
15	0x3e7a0e6d	0.24419565
16	0x3e2b5782	0.167326
17	0xbf014a46	-0.5050396
18	0xbeb3a0a3	-0.35083494
19	0x3e9ee0b3	0.31030807
20	0xbe1ac0e2	-0.15112641
21	0x3ebe4f43	0.37169847
22	0x3eb4a725	0.3528377
23	0x3eefb8a3	0.46820554
24	0xbf04658a	-0.51717436
25	0x3ddd22c6	0.10797648
26	0xbefbe682	-0.491993
27	0xbebe654a	-0.37186652
28	0xbeb7dc21	-0.35910133
29	0x3ef89353	0.485499
30	0xbde699e7	-0.11259823
31	0xbe072144	-0.13196284

encoder.1.0.bn1.weight f4 [32]
0	0x3f800000	1.0
1	0x3f800000	1.0
2	0x3f800000	1.0
3	0x3f800000	1.0
4	0x3f800000	1.0
5	0x3f800000	1.0
6	0x3f800000	1.0
7	0x3f800000	1.0
8	0x3f800000	1.0
9	0x3f800000	1.0
10	0x3f800000	1.0
11	0x3f800000	1.0
12	0x3f800000	1.0
13	0x3f800000	1.0
14	0x3f800000	1.0
15	0x3f800000	1.0
16	0x3f800000	1.0
17	0x3f800000	1.0
18	0x3f800000	1.0
19	0x3f800000	1.0
20	0x3f800000	1.0
21	0x3f800000	1.0
22	0x3f800000	1.0
23	0x3f800000	1.0
24	0x3f800000	1.0
25	0x3f800000	1.0
26	0x3f800000	1.0
27	0x3f800000	1.0
28	0x3f800000	1.0
29	0x3f800000	1.0
30	0x3f800000	1.0
31	0x3f800000	1.0

encoder.1.0.bn1.bias f4 [32]
0	0x00000000	0.0
1	0x00000000	0.0
2	0x00000000	0.0
3	0x00000000	0.0
4	0x00000000	0.0
5	0x00000000	0.0
6	0x00000000	0.0
7	0x00000000	0.0
8	0x00000000	0.0
9	0x00000000	0.0
10	0x00000000	0.0
11	0x00000000	0.0
12	0x00000000	0.0
13	0x00000000	0.0
14	0x00000000	0.0
15	0x00000000	0.0
16	0x00000000	0.0
17	0x00000000	0.0
18	0x00000000	0.0
19	0x00000000	0.0
20	0x00000000	0.0
21	0x00000000	0.0
22	0x00000000	0.0
23	0x00000000	0.0
24	0x00000000	0.0
25	0x00000000	0.0
26	0x00000000	0.0
27	0x00000000	0.0
28	0x00000000	0.0
29	0x00000000	0.0
30	0x00000000	0.0
31	0x00000000	0.0

encoder.1.0.bn1.running_mean f4 [32]
0	0x3f176d00	0.59150696
1	0x3e54a6bd	0.2076673
2	0x3e60ac30	0.21940684
3	0x3f02ef06	0.5114597
4	0xbee52588	-0.44755197
5	0x3f82df46	1.0224388
6	0x3f0339f8	0.5126033
7	0x3f54fadf	0.831953
8	0x3d7c6e9c	0.061628923
9	0x3e534c1a	0.20634499
10	0x3e1b6bfd	0.15177913
11	0x3f3a4156	0.72755945
12	0x3f4fd2ec	0.81181216
13	0xbf59ff7d	-0.8515547
14	0x3d3bc474	0.04584165
15	0x3eabd4ac	0.33560693
16	0x3ea855b2	0.3287788
17	0xbf235cc8	-0.6381345
18	0xbefc2fb1	-0.49255136
19	0x3ebcf6c1	0.36907008
20	0x3c942216	0.01808266
21	0x3e90a99c	0.28254402
22	0x3f2818af	0.65662664
23	0x3f11a7b8	0.56896544
24	0xbf0c9e66	-0.54929197
25	0x3ec1b418	0.37832713
26	0xbee707c0	-0.451231
27	0xbee58638	-0.44828963
28	0xbcd28a6a	-0.025700767
29	0x3f498209	0.7871404
30	0xbe1ba1a6	-0.15198383
31	0xbdd415dd	-0.103557326

encoder.1.0.bn1.running_var f4 [32]
0	0x3e73918d	0.23785992
1	0x3f25531b	0.64579934
2	0x3f0b0264	0.5430052
3	0x3ec92439	0.39285448
4	0x3f686f3d	0.90794736
5	0x3eab8621	0.3350077
6	0x3ed869fa	0.42268354
7	0x3e626f4b	0.22112767
8	0x3f2f27fe	0.684204
9	0x3ec9a2a0	0.39381886
10	0x3ec471bc	0.38368022
11	0x3ea47752	0.32122284
12	0x3f4a33e9	0.7898546
13	0x3ef999a8	0.48750043
14	0x3f0ae062	0.5424863
15	0x3f0c6b9b	0.5485169
16	0x3e93b5ae	0.28849548
17	0x3f3e6142	0.74367154
18	0x3f66e932	0.9019958
19	0x3ee81a85	0.45332733
20	0x3f226061	0.6342831
21	0x3eecc2f7	0.46242496
22	0x3f8d2405	1.1026617
23	0x3ec59026	0.3858654
24	0x3f462a96	0.7740873
25	0x3ea5b175	0.3236195
26	0x3e42e85c	0.1903395
27	0x3efba0ae	0.49146026
28	0x3f8747ff	1.0568846
29	0x3e9e4c15	0.3091742
30	0x3ee7e2f2	0.45290333
31	0x3ee0cb97	0.43905327

encoder.1.0.conv1.weight f4 [32, 32, 2, 3]
0	0x3bb4562e	0.0055034375
1	0xbd4aa562	-0.049474128
2	0x3cf0ae86	0.029380094
3	0x3cc5f074	0.024162509
4	0xbd87a0d9	-0.06622476
5	0xbc20e42d	-0.009820026
6	0xb9d6e05e	-0.00040984427
7	0x3d6858f3	0.056725454
8	0x3dc40a83	0.095723175
9	0x3d2a419c	0.041566476
10	0x3d7bc5ef	0.06146806
11	0xbd7c7691	-0.06163651
12	0xbd8c7ef5	-0.06860153
13	0x3d23bc6b	0.03997461
14	0xbc87d40e	-0.016580608
15	0xbced10cd	-0.028938675
16	0x3c9e6807	0.019336713
17	0x3c48bbeb	0.012251834
18	0xbd1c2901	-0.038125042
19	0x3d31299e	0.04325258
20	0xbd2a717a	-0.041612126
21	0x3ca70444	0.020387776
22	0xbbfc7974	-0.007704908
23	0xbccf6174	-0.025315024
24	0x3c04c8b4	0.008104492
25	0x3d83d684	0.064374
26	0x3d7676b9	0.060171816
27	0xbd01756c	-0.031606123
28	0x3c81c41d	0.015840584
29	0xbc2f0afa	-0.010683769
30	0xbd90ae30	-0.07064474
31	0xbc4f880b	-0.0126667125
32	0xbd76959b	-0.06020127
33	0xbd8e9910	-0.06962788
34	0xbd78ccdd	-0.060742248
35	0x3d0f610e	0.035004668
36	0x3c08428a	0.008316645
37	0xbd38a05f	-0.045074817
38	0xbce94859	-0.02847688
39	0xbc17b858	-0.00926026
40	0x3c50f465	0.012753581
41	0xbd63d85c	-0.05562626
42	0xbca2bc03	-0.019865042
43	0xbd0c365e	-0.034231536
44	0xbd48bc40	-0.049007654
45	0xbd48c879	-0.04901931
46	0xbcafbe8f	-0.02145317
47	0xbd145eb0	-0.036223114
48	0x3d162b1e	0.036662214
49	0xbc2f6506	-0.010705238
50	0x3ddc2250	0.10748732
51	0x3d970f81	0.07376004
52	0x3dadcb34	0.084860235
53	0x3dd26465	0.10273055
54	0xbd43a302	-0.04776288
55	0x3d0a2221	0.033723954
56	0x3dc3be57	0.09557789
57	0x3d9920cf	0.07476961
58	0xbbeda0af	-0.007251821
59	0xbd9257c1	-0.07145644
60	0x3cbac46e	0.022798743
61	0x3d860c9c	0.06545374
62	0x3d916db5	0.07101003
63	0xbcfd5575	-0.030924538
64	0x3cc4a018	0.02400212
65	0xbd03b06b	-0.032150667
66	0x3c833f2c	0.016021334
67	0xbd5bca82	-0.053659923
68	0xbc0db29d	-0.008648542
69	0xbd6882a4	-0.056765214
70	0xbb1fb0e2	-0.0024366905
71	0x3c19c29b	0.009384776
72	0xbd0b5b16	-0.034022413
73	0x3cef109d	0.029182727
74	0xbd272089	-0.040802512
75	0x3995ca00	0.00028569996
76	0xbccc0506	-0.02490474
77	0x3d4d5ea8	0.0501391
78	0x3d2e9952	0.042626686
79	0xbd3d933e	-0.046283
80	0x3da68c17	0.08132189
81	0x3dbdac42	0.09261371
82	0xba8cd8a0	-0.0010745712
83	0x3cc00b23	0.02344281
84	0xbca196f8	-0.019725308
85	0xbdd28061	-0.102783926
86	0x3b95ad6f	0.004567794
87	0x3b8d8733	0.0043190955
88	0x3d657a36	0.056024753
89	0x3cfed1af	0.031105844
90	0x3db8c794	0.090224415
91	0x3dcab717	0.09898203
92	0x3cb1fcb7	0.02172695
93	0x3cbb370a	0.022853393
94	0x3cdf15e3	0.027232116
95	0xbba7cb71	-0.0051206877
96	0x3d8acecb	0.06777724
97	0x39334e23	0.00017099878
98	0xbd50f8da	-0.051018573
99	0x3d174227	0.036928322
100	0x3d8cb486	0.068703696
101	0xbcb5fb3f	-0.02221453
102	0x3d18c3cb	0.037296098
103	0xbd38fe0b	-0.04516415
104	0x3d2a15f9	0.04152486
105	0x3db134b6	0.08652632
106	0xbd04508d	-0.03230338
107	0xbd8e6427	-0.06952696
108	0x3c2da009	0.010597237
109	0xbcdbecfa	-0.026846398
110	0x3d89ca62	0.067280546
111	0x389f5cc3	7.598989e-05
112	0x3cf074ed	0.02935263
113	0x3d739f08	0.059477836
114	0x3ce760ba	0.028244365
115	0x3c8ed3b5	0.017434934
116	0x3dc14076	0.09436123
117	0x3cb8c3f5	0.022554377
118	0x3d59386c	0.053032324
119	0xbdcd7986	-0.100329444
120	0xbd20974f	-0.0392068
121	0xbd08b3c8	-0.033374578
122	0xbcc6bfe1	-0.024261417
123	0x3d2d7ffd	0.042358387
124	0x3df53c5d	0.11974404
125	0x3cb52db4	0.02211652
126	0xbd186ea7	-0.0372149
127	0x3d3b3d66	0.04571285
128	0xbc482229	-0.012215176
129	0x3d3396c3	0.04384495
130	0xbdb06ca7	-0.08614474
131	0xbd6c70e1	-0.057724837
132	0xbd6b7088	-0.057480365
133	0x3da29b28	0.0793975
134	0xbc9d77b4	-0.019222118
135	0x3c844384	0.016145475
136	0xbc21dcc0	-0.009879291
137	0x3cc74e4d	0.024329329
138	0xbc06b485	-0.00822175
139	0x3d2f832c	0.042849705
140	0x3d050689	0.032476936
141	0xbcb88056	-0.022522133
142	0xbd7606fe	-0.060065262
143	0xbc38ce17	-0.011279604
144	0x3d1d6b1f	0.038432237
145	0x3d42916a	0.04750196
146	0xb99f7605	-0.00030414775
147	0xbcd5d912	-0.026104484
148	0xbcad658a	-0.021166582
149	0x3cd70282	0.026246313
150	0x3cdb5bb0	0.026777118
151	0x3d99c12e	0.07507549
152	0x3c44e0c8	0.012016483
153	0xbd5f5fc6	-0.054534696
154	0x3d70444d	0.058658887
155	0x3d1325e1	0.035924796
156	0xbd48168e	-0.048849635
157	0x3d9f88a0	0.07789731
158	0x3cc927e5	0.024555156
159	0xbd0f980a	-0.035057105
160	0x3c5c0c1e	0.013430623
161	0x39fa62cf	0.00047757334
162	0xbd27f197	-0.041001882
163	0x3d8a04dd	0.06739209
164	0x3d54c97d	0.051949967
165	0xbb3d193e	-0.0028854157
166	0xbd2b4fef	-0.041824277
167	0xbbadcf49	-0.0053042513
168	0xbcd97cb5	-0.026548723
169	0xbd4b46be	-0.049628012
170	0xbd4adf20	-0.049529195
171	0xbd4a6fad	-0.04942291
172	0xbcc4b788	-0.024013296
173	0x3d5b68c9	0.053566728
174	0x3d0454eb	0.032307547
175	0xbc01491d	-0.007890967
176	0xbcf03a35	-0.02932463
177	0x3d02ba12	0.03191573
178	0xbbd7a6ac	-0.006581148
179	0xbd43e609	-0.0478268
180	0x3cd5c21e	0.026093539
181	0x3d176108	0.03695777
182	0x3d83c7ff	0.064346306
183	0x3c9b34a3	0.018945998
184	0x3c8b0ef8	0.016974911
185	0x3d05f880	0.03270769
186	0x3c8f0a6c	0.017461024
187	0x3bbc738c	0.005751079
188	0x3da008fb	0.07814213
189	0x3c2df033	0.01061635
190	0x3d04f539	0.032460425
191	0x3dafe7b9	0.085891195
192	0x3b8ac300	0.0042346716
193	0x3cc2222e	0.023697939
194	0x3c447df8	0.011992924
195	0x3ca88683	0.020571953
196	0x3ca74fc5	0.02042378
197	0xbc97e8c4	-0.018543608
198	0x3d151831	0.036400024
199	0xbda55c84	-0.080742866
200	0x3d6c15e4	0.057638064
201	0x3d7ba240	0.06143403
202	0x3d9d70f2	0.07687558
203	0x3b7f76a7	0.0038980634
204	0xbcb00d0c	-0.021490596
205	0xbca676d8	-0.020320341
206	0xbc5cd6cc	-0.013478946
207	0x3d15367c	0.036428913
208	0xbd7331f5	-0.059373815
209	0xbd283bc1	-0.04107261
210	0x3d8e580d	0.06950388
211	0xbbce579f	-0.0062970663
212	0x3d539951	0.051659886
213	0xbd640b05	-0.05567457
214	0x3cb3290e	0.021870162
215	0xbd4a920e	-0.049455695
216	0x3d86a694	0.06574741
217	0x3d83259e	0.06403659
218	0x3d89c1fe	0.06726454
219	0x3cf28566	0.029604625
220	0xbcc1f3a6	-0.023675751
221	0x3d723685	0.059134025
222	0xbc4b9f17	-0.012428067
223	0xbd05ebe5	-0.03269567
224	0x3c48b44c	0.012250017
225	0x3caa80a6	0.020813297
226	0xbd0bfd12	-0.034176894
227	0xbcb544f7	-0.022127612
228	0xbc038df4	-0.00802945
229	0x3ccbb581	0.024866821
230	0x3d089549	0.033345494
231	0x3c7334ff	0.014844178
232	0xbd07c1ff	-0.033143993
233	0xbda200bc	-0.07910296
234	0x3c09655b	0.008385981
235	0x3da7b2ac	0.08188376
236	0xbd32dae5	-0.043665785
237	0xbc56a024	-0.013099704
238	0xbd06652f	-0.03281134
239	0xbc57c538	-0.013169579
240	0x3c372ff4	0.0111808665
241	0xbcb88999	-0.02252655
242	0xbca46843	-0.020069247
243	0xbccd440f	-0.025056867
244	0x3c84b181	0.016197922
245	0x3d0e27a0	0.034705758
246	0x3d26a77e	0.040687077
247	0xbd8fa1ce	-0.07013284
248	0xbcb6cf27	-0.022315575
249	0x3c79760b	0.015225898
250	0xbd6bd966	-0.057580374
251	0xbda60358	-0.081061065
252	0xbc1da7a4	-0.009622488
253	0x3d1bf958	0.03807959
254	0x3d8571a2	0.06515814
255	0x3dba09fe	0.09083937

encoder.1.0.conv1.bias f4 [32]
0	0xb7e0638d	-2.6749238e-05
1	0x38360e11	4.340528e-05
2	0xb7ae799d	-2.0799047e-05
3	0x37fa471f	2.983544e-05
4	0x3690755f	4.305198e-06
5	0x37cc46b9	2.4351628e-05
6	0xb7df99f7	-2.6655367e-05
7	0xb79994ac	-1.8308252e-05
8	0x37c9ea30	2.407012e-05
9	0xb824f64a	-3.933002e-05
10	0x353b8641	6.9858294e-07
11	0xb7fcf2f9	-3.0153884e-05
12	0x37be5247	2.2688078e-05
13	0xb7f3a67c	-2.9045383e-05
14	0xb80b85c7	-3.3264772e-05
15	0x37ce0117	2.4557621e-05
16	0xb7a0dc49	-1.9176065e-05
17	0xb7190ec8	-9.122952e-06
18	0xb4e66216	-4.2912205e-07
19	0xb78a7735	-1.6506392e-05
20	0xb7391a53	-1.1032988e-05
21	0x38105a0c	3.4416138e-05
22	0x388b66c1	6.647176e-05
23	0x36bb3151	5.5787755e-06
24	0x3656dfd4	3.201877e-06
25	0x387fb8b3	6.0968752e-05
26	0xb6bd3f6d	-5.6400227e-06
27	0xb681dbcd	-3.8700878e-06
28	0xb7c84c90	-2.387751e-05
29	0xb8064d46	-3.2020056e-05
30	0x387707dc	5.889671e-05
31	0x385225ce	5.010311e-05

encoder.1.0.bn2.weight f4 [32]
0	0x3f790829	0.97278076
1	0x3f658bf9	0.89666706
2	0x3f6a86cc	0.91611934
3	0x3f783998	0.9696288
4	0x3f5119fb	0.8168027
5	0x3f7e0e23	0.9924032
6	0x3f849b53	1.0359901
7	0x3f545c49	0.82953316
8	0x3f73bccb	0.9520995
9	0x3f7fa7ca	0.998654
10	0x3f6cca0e	0.9249581
11	0x3f760599	0.9610229
12	0x3f61ca10	0.8819895
13	0x3f87db65	1.0613829
14	0x3f6a3f42	0.91502774
15	0x3f818b21	1.0120584
16	0x3f5522f7	0.8325648
17	0x3f6689fc	0.900543
18	0x3f6ecad5	0.9327825
19	0x3f71ce32	0.94455254
20	0x3f74557c	0.9544294
21	0x3f7d97d9	0.99059826
22	0x3f801dae	1.0009058
23	0x3f7681ab	0.9629161
24	0x3f71e606	0.9449161
25	0x3f8a15ea	1.0787938
26	0x3f5fd151	0.87428766
27	0x3f61bef1	0.8818198
28	0x3f620deb	0.8830249
29	0x3f7d4627	0.9893517
30	0x3f810a86	1.0081336
31	0x3f761fc0	0.96142197

encoder.1.0.bn2.bias f4 [32]
0	0xbd9b1621	-0.0757258
1	0x3d32a5d8	0.043615192
2	0x3d8f2c3c	0.06990859
3	0x3ca7d101	0.020485403
4	0x3ca3816f	0.01995918
5	0xbded41ea	-0.11584838
6	0xbe34c824	-0.17654473
7	0x3d7c3b31	0.061579887
8	0x3d86ce0f	0.06582271
9	0x3c599d9d	0.013282207
10	0xbd27ee11	-0.040998522
11	0xbceea90c	-0.029133342
12	0xbb2e2b94	-0.0026576268
13	0xbdaba16c	-0.08380398
14	0x3de7bd9d	0.11315463
15	0x3a3e71b3	0.00072648673
16	0x3dd8d3e3	0.10587289
17	0x3dc6598e	0.0968505
18	0x3d5aed98	0.053449243
19	0xbcc84c16	-0.024450343
20	0x3db3aa77	0.08772748
21	0xbda2b4fb	-0.079446755
22	0xbe57e8fd	-0.21084972
23	0xbd1cac89	-0.03825048
24	0x3ded5776	0.115889475
25	0xbdfac512	-0.122446194
26	0x3e2cb4e7	0.16865884
27	0x3d69192b	0.056908768
28	0x3d3fc2d2	0.046816655
29	0xbbfbbfa4	-0.0076827575
30	0x3cea8eff	0.028632639
31	0xbb6cb0e4	-0.0036116177

encoder.1.0.bn2.running_mean f4 [32]
0	0xbf3cc739	-0.7374149
1	0xbf61121c	-0.8791826
2	0xbecc947d	-0.39957038
3	0xbdb5a2f7	-0.08868974
4	0xbd665e09	-0.056242023
5	0xbe6840ea	-0.22681013
6	0xbf5a6bce	-0.85320747
7	0xbed9c5dd	-0.4253377
8	0xbece75d3	-0.40324268
9	0x3e2dbae8	0.1696583
10	0xbe7132c0	-0.23554516
11	0x3f4d0831	0.80090624
12	0x3f83e859	1.0305282
13	0x3df7ddef	0.12102877
14	0x3f6c7734	0.9236939
15	0xbf00cc77	-0.5031199
16	0xbe34d738	-0.17660224
17	0x3f2d45d2	0.6768466
18	0x3ec1018c	0.37696493
19	0xbf45f802	-0.77331555
20	0xbdfd0f1b	-0.12356397
21	0xbf5bd9f8	-0.8587947
22	0xbf157bf2	-0.5839225
23	0x3f0522f2	0.5200645
24	0x3f26ed90	0.6520624
25	0xbea87155	-0.32898965
26	0x3f2609a8	0.64858484
27	0xbf1880b0	-0.5957136
28	0xbf8dbecb	-1.107385
29	0xbbf70b7b	-0.0075392104
30	0xbf250d9c	-0.6447389
31	0x3ecf09e6	0.4043724

encoder.1.0.bn2.running_var f4 [32]
0	0x3f864aa9	1.0491534
1	0x3f706b13	0.9391338
2	0x3ef2ea0f	0.47444198
3	0x3fbc6c02	1.4720461
4	0x3ec0ceb6	0.37657708
5	0x3f75eab7	0.9606127
6	0x3faa6dfc	1.3314815
7	0x3f0fab5d	0.56120855
8	0x3f7039c2	0.9383813
9	0x3f93dcef	1.1551799
10	0x3f843820	1.0329628
11	0x3f61383e	0.87976444
12	0x3f6cd9db	0.9251992
13	0x3f6a8ba5	0.9161933
14	0x3f9b1451	1.2115575
15	0x3f8854e6	1.0650909
16	0x3efb087f	0.4902992
17	0x3f29ed01	0.66377264
18	0x3f3d7860	0.740118
19	0x3f60478e	0.87609184
20	0x3ea4225b	0.3205746
21	0x3fa85494	1.3150811
22	0x3f9c84a5	1.222798
23	0x3f7c51ac	0.9856212
24	0x3f94b109	1.1616527
25	0x3f28ddf9	0.65963703
26	0x3fa9be60	1.3261223
27	0x3f0cc535	0.54988414
28	0x3f2e973b	0.6819951
29	0x3f45f3d9	0.77325207
30	0x3fab352b	1.33756
31	0x3f968432	1.1759093

encoder.1.0.conv2.weight f4 [32, 32, 2, 3]
0	0xbcd2663f	-0.02568352
1	0xbd8a0a5f	-0.067402594
2	0x3d129e03	0.035795223
3	0xbd0e7028	-0.03477493
4	0x3d27440a	0.04083637
5	0x3b92a579	0.0044752923
6	0xbc07acc7	-0.008280939
7	0x3c6b17f7	0.014348975
8	0x3d8e90c2	0.06961204
9	0xbbb33019	-0.00546838
10	0xbd813b38	-0.06310123
11	0x3c49f583	0.012326601
12	0xbd8003f5	-0.06250755
13	0x3d163029	0.036667023
14	0xbdd566af	-0.10419976
15	0x3ca4ab6e	0.020101275
16	0x3da8b1b9	0.08237023
17	0xbd065dfe	-0.03280448
18	0x3d0521ca	0.032502927
19	0xbd0d72fc	-0.034533486
20	0x3d9cc2a4	0.07654312
21	0xbcd8330b	-0.026391527
22	0xbd601a4e	-0.054712586
23	0x3c8256d1	0.015910538
24	0xbc17e105	-0.009269957
25	0x3c939b6c	0.018018447
26	0xbb2d529b	-0.0026446942
27	0x3c5ecf16	0.013599178
28	0x3d018148	0.031617433
29	0xbd11a0ba	-0.03555367
30	0xbd50858c	-0.05090861
31	0x3c1d803e	0.009613095
32	0xbc8766c3	-0.016528493
33	0xbd94c218	-0.07263583
34	0xbd452995	-0.04813536
35	0xbb815bfb	-0.0039477325
36	0x3cfabf56	0.030608814
37	0x3bcb7ccf	0.0062099467
38	0x3d4c70d2	0.04991228
39	0x3dcd35a8	0.1002
40	0xbcc0e715	-0.023547688
41	0x3d2206e9	0.03955737
42	0x3bbfc17c	0.0058519226
43	0x3c4c6850	0.012476042
44	0x3d40ec1c	0.04710017
45	0x3c97dba1	0.018537344
46	0xbce859f0	-0.028363198
47	0x3b1ba9e1	0.0023752379
48	0xbcdc3d22	-0.02688462
49	0x3caf87e9	0.021427112
50	0x3d4a8d04	0.04945089
51	0xbd6c2fac	-0.05766265
52	0xbd2ea958	-0.042641968
53	0xbdb0902a	-0.08621247
54	0xbca3dccc	-0.020002745
55	0x3bd7dac8	0.00658736
56	0x3cc63d7a	0.024199236
57	0xbd3b7618	-0.04576692
58	0x3d9d0d62	0.07668568
59	0x3d89aaf6	0.06722061
60	0x3d0415ac	0.03224723
61	0xbd5a911d	-0.053361047
62	0xbd200179	-0.039063904
63	0xbd11c1e4	-0.0355853
64	0x3c16f466	0.009213543
65	0xbc3b4d9b	-0.011432077
66	0x3c064734	0.008195687
67	0x3da9885f	0.08277964
68	0x3db2a678	0.08723158
69	0x3d74f267	0.059801485
70	0x3cb99bba	0.022657264
71	0x3ce2b0a3	0.027672118
72	0xbd0702c6	-0.03296163
73	0xbd48b42a	-0.048999943
74	0x3c1fd184	0.009754542
75	0xbc2559e4	-0.010092232
76	0x3c72a660	0.014810175
77	0x3d4352d0	0.047686398
78	0x3d564a83	0.052317154
79	0xbca38558	-0.019961044
80	0x3d4c2b1e	0.049845807
81	0xbcdbd1ec	-0.026833497
82	0x3d3aed73	0.045636605
83	0x3d6d64e4	0.057957545
84	0xbda82dcd	-0.08211861
85	0x3d1d70f5	0.038437802
86	0x3c8eb294	0.017419137
87	0xbd3072be	-0.043078177
88	0x3d2f44df	0.04279029
89	0x3d4eb07e	0.050461285
90	0x3d97e152	0.07416023
91	0x3da14ae8	0.07875615
92	0xbd661332	-0.05617065
93	0x3d261d29	0.040555153
94	0xbd101cdc	-0.035183772
95	0xbd5ae6db	-0.053442817
96	0x3d838624	0.0642207
97	0x3c9b1db0	0.018935055
98	0xbcf35206	-0.029702198
99	0xbcc7dda2	-0.024397675
100	0xbd5cfbe4	-0.05395116
101	0xbc94a15b	-0.018143347
102	0xbd79ee0d	-0.06101804
103	0x3cb10d05	0.021612654
104	0xbc429bec	-0.011877995
105	0xbd59453c	-0.053044543
106	0xbb84c34f	-0.004051603
107	0x3d87682d	0.06611667
108	0xbd37c2cb	-0.044863503
109	0xbcffcac6	-0.03122462
110	0xbc7f04a7	-0.015565074
111	0x3c9b1336	0.018930059
112	0x3cbae26a	0.02281304
113	0x3d9eca37	0.07753413
114	0x3d349cd5	0.04409488
115	0xbd0f751c	-0.035023794
116	0xbcaeefe8	-0.02135463
117	0xbcebcf24	-0.028785296
118	0xbbde366c	-0.00678139
119	0xbb41fab3	-0.0029598891
120	0xbd8dfc1c	-0.06932852
121	0xbd1ba98a	-0.038003482
122	0x3d22ca10	0.039743483
123	0xbd8baded	-0.06820283
124	0x3d3d3b66	0.046199225
125	0xbc74f15d	-0.014950124
126	0x3cae98f8	0.021313176
127	0xbcc72b5c	-0.024312668
128	0xbd918c85	-0.0710688
129	0x3b9a6ce0	0.004712686
130	0xbc1f58d1	-0.009725765
131	0xbce9aeb4	-0.028525688
132	0xbc833244	-0.01601518
133	0xbce7195f	-0.02821034
134	0x3d36fbd4	0.044673756
135	0xbca4de66	-0.02012558
136	0x3ccf56d4	0.025309958
137	0xbd7cf106	-0.061753295
138	0x3d617b4b	0.055049222
139	0x3d2747ee	0.040840082
140	0x3d49261e	0.049108617
141	0x3d262b75	0.040568788
142	0xbd4aea6f	-0.04953998
143	0xbdac89e5	-0.08424739
144	0xbd8a745e	-0.067604765
145	0x3cdf3293	0.027245795
146	0x3dace3e5	0.08441905
147	0x3c9ace30	0.018897146
148	0x3d028f6e	0.031875066
149	0x3b8950c9	0.0041905385
150	0xbd7e3365	-0.062060732
151	0xbd41e19f	-0.04733431
152	0x3cc56a08	0.024098411
153	0x3d762182	0.06009055
154	0xbc9a8c4d	-0.018865729
155	0x3d92b3db	0.07163211
156	0xbda7f1e6	-0.08200435
157	0xba15db90	-0.0005716616
158	0x3c75099c	0.014955904
159	0xbd453ab6	-0.048151694
160	0xbcc55d2c	-0.02409228
161	0x3c84ed7f	0.016226528
162	0xbd0633f3	-0.032764386
163	0x3d82ac89	0.06380565
164	0x3d9a65bd	0.07538936
165	0xbd93fe37	-0.07226222
166	0xbd4b6958	-0.04966101
167	0x3d38fe5d	0.045164455
168	0xbc853786	-0.016261827
169	0x3d7bb25e	0.0614494
170	0xbcd93f82	-0.02651954
171	0x3c89e156	0.016831081
172	0x3da35787	0.07975679
173	0xbd6f15f8	-0.05837056
174	0xbdad31af	-0.08456742
175	0xbd157a2e	-0.036493473
176	0xbd594b58	-0.05305037
177	0x3cd51bf6	0.02601431
178	0x3d015fab	0.031585377
179	0xbcb5ed43	-0.022207862
180	0x3d61308c	0.05497794
181	0x3d2aeb73	0.041728448
182	0xbd2c5f38	-0.042082995
183	0x3d2a7dc8	0.04162386
184	0xbd5ef8af	-0.054436382
185	0xbd637494	-0.0555311
186	0xbd89b06c	-0.06723103
187	0x3c2a9b6a	0.01041303
188	0xbcb2e52e	-0.021837797
189	0x3d889dd9	0.06670732
190	0xbd71f775	-0.059073884
191	0xbd4ad96c	-0.049523756
192	0x3d9cf1d5	0.07663313
193	0x3d832430	0.064033866
194	0xbd1ceb90	-0.038310587
195	0x3c8ba583	0.017046696
196	0xbceeca0c	-0.029149078
197	0xbd5305ef	-0.05151933
198	0x3c4221af	0.011848851
199	0x3ce87c51	0.028379591
200	0x3d9e3f2e	0.07726894
201	0xbb2ad50c	-0.0026066927
202	0x3a229113	0.00062014273
203	0xbd0f9712	-0.03505618
204	0xbd9c1ba5	-0.0762246
205	0x3c8bc3d3	0.01706115
206	0x3cff4cf6	0.031164628
207	0x3d61cf55	0.055129368
208	0x3cd5df7b	0.02610754
209	0xbda4fa5e	-0.08055566
210	0xbd349256	-0.04408487
211	0x3da5112e	0.080599174
212	0x3dd002a4	0.10156754
213	0xbd67a6ea	-0.056555666
214	0x3bf52ec2	0.0074823806
215	0xbbef9644	-0.007311614
216	0xbcb3ad61	-0.02193326
217	0xbd0d4933	-0.034493636
218	0xbd62eab7	-0.055399623
219	0x3c9fe936	0.019520383
220	0xbd8c9024	-0.0686343
221	0x3d65a5ff	0.05606651
222	0xbd7ff8c7	-0.062493112
223	0xbb5a22b4	-0.0033284845
224	0xbdacfc7e	-0.084465966
225	0xbd19e5a1	-0.037572507
226	0xbd0a8419	-0.033817384
227	0xbd2511ab	-0.040300053
228	0x3da9d67b	0.08292862
229	0x3d809cca	0.06279905
230	0x3d145c19	0.036220644
231	0x3dba247e	0.090889916
232	0x3d9dbaf5	0.07701675
233	0x3b9db4cd	0.004812813
234	0xbb41d5f6	-0.0029576994
235	0xbc3d27ab	-0.011545102
236	0xbd54fc4b	-0.051998418
237	0xbd9bdbfd	-0.07610319
238	0xbd2c8249	-0.042116437
239	0xbd0569cd	-0.032571603
240	0x3cae0e38	0.021247014
241	0x3d56d409	0.052448306
242	0x3d938581	0.07203198
243	0xbc60e6db	-0.013726915
244	0xbd157041	-0.036484007
245	0x3ca1fa69	0.019772725
246	0x3d784537	0.060612883
247	0xbd3d0666	-0.04614868
248	0x3d864cd2	0.06557621
249	0x3d48f32b	0.049060028
250	0xbd690e48	-0.056898385
251	0xbd2c249c	-0.0420271
252	0x3d36f6b9	0.044668887
253	0x3d57135f	0.052508708
254	0xbcc80326	-0.024415564
255	0x3d11c9ee	0.035592966

encoder.1.0.conv2.bias f4 [32]
0	0x3de8c2cc	0.113652796
1	0xbd40a50f	-0.047032412
2	0xba751b7a	-0.00093501026
3	0x3cbf0c06	0.023321163
4	0xbd8c8cef	-0.068628184
5	0x3dfbde42	0.12298252
6	0x3d3e03e2	0.04639042
7	0x3d2fa79f	0.042884465
8	0x3dab3421	0.08359552
9	0xbdd66dd8	-0.1047017
10	0x3d761ca5	0.06008591
11	0x3da8f520	0.08249879
12	0x3e21a7cb	0.15786664
13	0xbda9e3a1	-0.0829537
14	0xbd63397c	-0.055474743
15	0x3d27e318	0.040988058
16	0xbd20b1a1	-0.0392319
17	0xbdf6bd0c	-0.120477766
18	0xbd894614	-0.067028195
19	0x3e0a392c	0.13498372
20	0xbcfddcd2	-0.030989084
21	0xbdae0353	-0.08496728
22	0x3b7afe77	0.0038298646
23	0xbb91b7ee	-0.004446975
24	0x3d4a47f1	0.049385015
25	0x3d08a9c8	0.03336504
26	0xbd85be11	-0.06530393
27	0xbe17e0a0	-0.14831781
28	0xbd9c886c	-0.07643208
29	0x3ba360fb	0.004985926
30	0xbd8d27f0	-0.06892383
31	0x3bae00a8	0.005310137

encoder.2.0.bn1.weight f4 [32]
0	0x3f800000	1.0
1	0x3f800000	1.0
2	0x3f800000	1.0
3	0x3f800000	1.0
4	0x3f800000	1.0
5	0x3f800000	1.0
6	0x3f800000	1.0
7	0x3f800000	1.0
8	0x3f800000	1.0
9	0x3f800000	1.0
10	0x3f800000	1.0
11	0x3f800000	1.0
12	0x3f800000	1.0
13	0x3f800000	1.0
14	0x3f800000	1.0
15	0x3f800000	1.0
16	0x3f800000	1.0
17	0x3f800000	1.0
18	0x3f800000	1.0
19	0x3f800000	1.0
20	0x3f800000	1.0
21	0x3f800000	1.0
22	0x3f800000	1.0
23	0x3f800000	1.0
24	0x3f800000	1.0
25	0x3f800000	1.0
26	0x3f800000	1.0
27	0x3f800000	1.0
28	0x3f800000	1.0
29	0x3f800000	1.0
30	0x3f800000	1.0
31	0x3f800000	1.0
